…
learning_rate=0.001, lstm_size=400, model_name='vae_stn2b4', model_signature='vae_stn2b4_stn_2022-04-10_20_44_56_exVAE_z80_T100_rs15_rs15_lstm400_beta2.0_rc_vae_stn_b1_2', out_dir='/users/vboutin/scratch/model_zero_shot', preload=True, rate_scheduler=True, read_size=(1, 15, 15), seed=32, snap_dir='/users/vboutin/scratch/model_zero_shot/omniglot/vae_stn/vae_stn2b4_stn_2022-04-10_20_44_56_exVAE_z80_T100_rs15_rs15_lstm400_beta2.0_rc_vae_stn_b1_2/', tag='vae_stn_b1_2', time_step=100, use_wandb=False, write_size=(1, 15, 15), z_size=80)
PID 135690
SeqVaeCondGeneral2b4(
  (fc_loc): Sequential(
    (0): Linear(in_features=100, out_features=64, bias=True)
    (1): ReLU(inplace=True)
    (2): Linear(in_features=64, out_features=32, bias=True)
    (3): ReLU(inplace=True)
    (4): Linear(in_features=32, out_features=6, bias=True)
  )
  (q_z_mean): Sequential(
    (0): Linear(in_features=1075, out_features=512, bias=True)
    (1): ReLU(inplace=True)
    (2): Linear(in_features=512, out_features=128, bias=True)
    (3): ReLU(inplace=True)
    (4): Linear(in_features=128, out_features=80, bias=True)
  )
  (q_z_var): Sequential(
    (0): Linear(in_features=1075, out_features=512, bias=True)
    (1): ReLU(inplace=True)
    (2): Linear(in_features=512, out_features=128, bias=True)
    (3): ReLU(inplace=True)
    (4): Linear(in_features=128, out_features=80, bias=True)
  )
  (to_imagette): Sequential(
    (0): Linear(in_features=300, out_features=200, bias=True)
    (1): ReLU(inplace=True)
    (2): Linear(in_features=200, out_features=225, bias=True)
  )
  (rnn): LSTMCell(305, 400)
)
number of parameters : 2,499,159
1_train_vae.py --batch_size 128 --model_name vae_stn2b4 --dataset omniglot --out_dir /users/vboutin/scratch/model_zero_shot --epoch 500 --tag vae_stn_b1_2 --z_size 80 --dataset_root /users/vboutin/scratch/data/ --learning_rate 1e-3 --input_type binary --beta_adam 0.9 --lstm_size 400 --time_step 100 --input_shape 1 50 50 --write_size 1 15 15 --read_size 1 15 15 --seed 32 --clip_value 5 --exemplar t --exemplar_type prototype --preload --beta 2 --rate_scheduler t --device meso 
…
